Deep_Learning/Hw_1/hw1-TsengMJ/Weight/weight.npy (npy, 1432 bytes, 1 tensors)

array f8 [163, 1]
0	0x3fe44d729088000f	0.6344540427089685
1	0xbff8dc58ad1df933	-1.5537955057512363
2	0x3ff6779f4221733a	1.4042046149472314
3	0xbffbdaa72d0daf35	-1.7408820876980375
4	0xbf8e17816dd98fa4	-0.014693270840503043
5	0x3ffbf35c47b8d1c8	1.7469141770971977
6	0xbfdb7265a81bacc5	-0.4288572446518624
7	0xc004fef3bad40973	-2.6244883151968508
8	0x40039fd0c9d625c0	2.4530349510648364
9	0xbfd4018e756b9b2b	-0.31259499995069245
10	0x3fc2fd6c85786f32	0.14835888402091651
11	0x3fb4d2b8334b8db3	0.08134032490084202
12	0x3fb53f685dadcc82	0.08299877440531314
13	0xbf7ead2706c8ad0d	-0.007489349791778521
14	0xbfa1ac4e722a3824	-0.03451771873106704
15	0xbfc75c023ac4b9e2	-0.18249538297227647
16	0x3fc560f52d94293b	0.16702141500020126
17	0x3fe011377916ddc5	0.5021016469026384
18	0x3fa9b1c8261ea500	0.05018449273422654
19	0xbf9a9059eedca732	-0.025941281513190258
20	0x3fb06a2d27778269	0.06412012303872817
21	0xbfc48ae4ce4f08d5	-0.16048870156925568
22	0x3fc3d95280b9d0af	0.15506964955750877
23	0xbf98e74737cb3b63	-0.02431975629843509
24	0xbfc4f6aa0f7998b5	-0.1637775970040757
25	0x3fb49b1657b7d5af	0.08049144403033524
26	0x3fd949637021bc87	0.39510427427644185
27	0xbfd388c1d093f573	-0.30522199028913305
28	0x3fd9a941ca04ec8a	0.400955626758965
29	0xbfd117407091e03a	-0.26704417222163424
30	0x3fd296d0e9c476b9	0.290455082214844
31	0x3fd5fbfb841b2d10	0.34350479031555015
32	0xbfe1262fdd5b3675	-0.5359114955296734
33	0x3fb5e83094b86f82	0.08557418471212766
34	0x3fc928eb52982734	0.19656125576903494
35	0x3fb23bd0c613c632	0.07122521243925276
36	0x3fbb1009c8b6f64a	0.10571347379933474
37	0x3fbde98e5ea00b4b	0.11684503374276038
38	0x3fd1ae30efe2851f	0.2762567846894672
39	0xbfe8ebfc18258625	-0.7788067313778738
40	0xbfd95df5abac1eee	-0.39635984196546203
41	0xbfda37fec97b8b41	-0.4096676795581296
42	0xbfb4dc26f63394a7	-0.08148425589350215
43	0xbfd8380b97bf47c0	-0.37842073267995247
44	0xbfe0b3af2db5cf60	-0.5219341175820595
45	0x3fd3678a531ba8c3	0.3031946002580634
46	0xbfa9f89ccf3ce31f	-0.05072488813170239
47	0xbfc3b58ae60855e1	-0.1539777396398412
48	0xc000b196ea16dc9f	-2.0867136276461475
49	0xbff3cb98dd352ecd	-1.2372063294341615
50	0xbfe333f62ff0de37	-0.6000929771752855
51	0xbfe5893752355871	-0.6730000119812428
52	0xc002232eab49ecdd	-2.2671788579878993
53	0x3fe271381cc23fbc	0.5763207017607708
54	0xbfaf5ea7038c5bae	-0.061269015486849696
55	0xbfe1d0a5608f59e9	-0.5567194829880552
56	0x3faecc898201a89d	0.060154244537288216
57	0x4002cf0daa96a9dd	2.351100285265814
58	0x3ff5df71fbfd1ab3	1.367052063303771
59	0x3fea32f2c64adf4b	0.8187192795657919
60	0x3fdb83678f598639	0.42989529608721316
61	0x40007d40996a1d21	2.061158369589649
62	0x3ff61778b49f7d0f	1.3807303481660858
63	0x3f50fcbdc83272c4	0.001036820730212871
64	0x3fd2e7678db59af9	0.29537381018455694
65	0xbfcc4378e8247c05	-0.22080909094890458
66	0xbfd64641b584a9b2	-0.3480381271971523
67	0x3fa1027571286d24	0.033221883834096994
68	0xbfe4c316497d9379	-0.6488143382417625
69	0xbfd7c298a05fbe49	-0.3712522092964475
70	0xbfcf7a2bda9f4e8c	-0.24591587233463874
71	0x3ffd59b7e5435e33	1.8344038920967136
72	0x3fcd3c7723cfaf83	0.2284077572688795
73	0x3fce3a432965de24	0.23615302583105902
74	0xbfe95d346b8b7d05	-0.7926275349126689
75	0x3ff1fb2a2ac817e9	1.1238195105702238
76	0xbfcbc4f460578123	-0.21694807724180362
77	0xbff035313eddbd85	-1.0129864173612486
78	0x3ff009119c9f4da9	1.0022140615518345
79	0xbfb257650fdeec3a	-0.07164603841276654
80	0x3fee0d5bd58cee95	0.9391307040127282
81	0xbfe36394b92c6f14	-0.6059058777495658
82	0xbfcdb081c650fb63	-0.2319490640965923
83	0x400d143865cf289c	3.6348731950611874
84	0xc00fb97d37605bf7	-3.9655708624154573
85	0xbfd893d1eb6a6690	-0.3840222166996705
86	0x40207ef77d503a7f	8.247981945079344
87	0xc022997645b9c0ce	-9.299730471539444
88	0x3fd8b6892758477f	0.3861410984255755
89	0x402fb5e99d965b8f	15.85529797039433
90	0x3fb4d949e8f91eef	0.08144056260891451
91	0xbf9a9745c8d7d2c2	-0.025967684157836464
92	0xbfb74204362a295f	-0.09085108110790462
93	0x3f95a1eb7f01a705	0.021125487925394832
94	0xbfbd035c90e974d8	-0.1133325437344469
95	0x3fbbf1cb575fc6bb	0.10915823825032593
96	0x3fa1b6026b0db60b	0.0345917468720068
97	0xbfb7fc1df51b9e96	-0.09369075044707595
98	0xbfc3f175bb882102	-0.15580627114128026
99	0xbfb0ad6a448a7f70	-0.06514610455860548
100	0x3fb8119db328147e	0.09401879905643004
101	0x3fd7b66c0415138e	0.3705091514460087
102	0xbfe9c90da69f13c8	-0.8057926420520909
103	0xbfe36f0ea39a0bd4	-0.6073067851397078
104	0x3ff56bf938c3b746	1.3388607232440832
105	0xbff4121bf4b63ca9	-1.2544211920792725
106	0xbfce520851b107dd	-0.23687843312114767
107	0x3fe90540a2d4b2cf	0.7818911724367242
108	0xbfe066d6b5ce1a4f	-0.5125535536652225
109	0x3fe3412da3683989	0.6017063323541133
110	0xbfc17c8c7fd6f721	-0.1366134285180403
111	0xbfb99c38d544e5fb	-0.10004000860944721
112	0xbf7bdb24c6fcfcd3	-0.006800788556403608
113	0x3fb8060f6e0a5e9c	0.0938424724248485
114	0xbfcac5a5cee7e1db	-0.20915672877141742
115	0x3fd134c8fcde3002	0.26884674734242264
116	0x3fd12a120bc6cddc	0.2681927790647174
117	0x3fd5356c03815fd9	0.33138561575242204
118	0xbfd563f82ed5d744	-0.3342266518951542
119	0x3fc244b5f2d95585	0.14272188527926857
120	0xbfda85ba44aa4537	-0.41441208558633796
121	0xbfb7df7339ca0db1	-0.09325332795019993
122	0x3fd6baa16b11e7c2	0.35514102417038995
123	0x3fb58a240a4b7ff1	0.08413911105480999
124	0xbfd711798b750237	-0.36044157618383416
125	0xbfc0d742133c2340	-0.13156915606693964
126	0xbfa4d432442f73ae	-0.04068142969456488
127	0x3fd28345c07a487a	0.2892622356095057
128	0xbf992d43412041be	-0.02458672604558542
129	0x3fc63211779c6880	0.17340296116237042
130	0x3fa31c5b7087a922	0.03732572315841966
131	0x3fc73f9d04b265f9	0.1816288254674843
132	0xbfd02054c43fee64	-0.25197333493244956
133	0x3fbac1dd40d54315	0.10452063401067975
134	0x3fa65929f93a1588	0.043649017022327874
135	0xbfc86081cfebfa14	-0.19044516231947795
136	0xbfb85da4815b9831	-0.0951788726630134
137	0x3fb4e8b666ac6150	0.08167591101335359
138	0xbfc6063d57713468	-0.17206541795386276
139	0x3fa3d658d612d301	0.03874471295549676
140	0xbf79949dccc2ae98	-0.006245247274062081
141	0x3f73400feedc696a	0.00469976638648926
142	0xbfcbc62116352dab	-0.21698392471658443
143	0x3fa233412066d310	0.0355472900440984
144	0xbfc8bd0cc25e9f5f	-0.19326934328750675
145	0xbfc1155bab3d56ce	-0.1334642969256294
146	0x3fd07092bd7033a6	0.256870923040703
147	0x3fb617d588555918	0.08630117968036577
148	0xbfbac76dcb302096	-0.1046055432381102
149	0xbfb892b05fde92aa	-0.0959882959419455
150	0xbfa814005dacd783	-0.0470275987958493
151	0x3f6878389218c24a	0.002987013330106235
152	0xbfc0ee9beec9acd8	-0.13228177222786175
153	0xbf90128c61a6870f	-0.015695756397355484
154	0x3fc750d19fe67373	0.18215389545084867
155	0xbfc31b3705810a46	-0.14926803368332936
156	0xbfcd454907b1880d	-0.22867691875131904
157	0xbfadfc5da902f703	-0.05856602371339472
158	0x3fd7601a8a5764e2	0.3652407027235097
159	0x3f8e747097618a4a	0.01487052881220054
160	0xbfd6c82caa710fb4	-0.3559676804036329
161	0x3fcb5f860010710f	0.21385264399658196
162	0x4035621b2d1cceea	21.383227176221148
