Deep_Learning/Hw_1/hw1-TsengMJ/Weight/weight_best.npy (npy, 1432 bytes, 1 tensors)

array f8 [163, 1]
0	0x3fe4cf392f642527	0.6502958226784913
1	0xbff9b44ce4f1415c	-1.6065186446249617
2	0x3ff7a15995c60e09	1.4768920755894916
3	0xbffcbb3154af8085	-1.7957013423947796
4	0xbf9c54d95a78ba3e	-0.027667423388431304
5	0x3ffcbe82d1b848aa	1.796511477678488
6	0xbfdab26a8159cf37	-0.4171396506492217
7	0xc005761c1b844b80	-2.682670798277684
8	0x4003d62070383018	2.479554058756559
9	0xbfd4e3a7753ca29a	-0.3263949055567906
10	0x3fc294edb7bed009	0.14516993972722528
11	0x3fb4a48b0e727451	0.08063572981559843
12	0x3fb5ca2fa885693a	0.08511636604581421
13	0xbf93b80b8e0d3ba2	-0.019256763978144804
14	0xbfa033dd4e9ec724	-0.03164569458694036
15	0xbfc73a3e27554918	-0.18146492882312582
16	0x3fc5eaa62350d886	0.17122341846851813
17	0x3fe01f87c7e7ac7a	0.5038489250558904
18	0x3fa971ab0544e136	0.04969534339255903
19	0xbf99dc3e42924c2d	-0.025254223645401353
20	0x3fb0b672a0823319	0.06528393191019823
21	0xbfc46c776b10abeb	-0.15956013419903967
22	0x3fc3dd9444c55bea	0.15519955976444005
23	0xbf9821e5337455cf	-0.023566800370721282
24	0xbfc4cbbeca0c8a75	-0.16246781221078135
25	0x3fb44e5db833648f	0.07932077166641903
26	0x3fd93fb00b8ca1f2	0.3945121872698386
27	0xbfd40bfb6e46ad10	-0.3132313324847056
28	0x3fd936c9505b7acc	0.3939688954105065
29	0xbfd12d5d32e14aea	-0.268393802344845
30	0x3fd2d1699c33684e	0.2940315270803965
31	0x3fd5492025f97213	0.3325882311671943
32	0xbfe13f30aa36c0a0	-0.5389636349191456
33	0x3fb7648792fc44e2	0.09137770975600604
34	0x3fc9e2c8f326837d	0.20223342773990885
35	0x3fb29e0bc96b648d	0.07272409121960006
36	0x3fb847d22c1730f0	0.09484590126448089
37	0x3fb7d22c15505fb9	0.09305072327003829
38	0x3fd1e00085b6ca4d	0.27929699953088943
39	0xbfe1932990bf54ed	-0.5492141558740095
40	0xbfd09f065107400e	-0.2597060958187293
41	0xbfd5ac9c1d23d71e	-0.33866026731208076
42	0xbfa1e3d52fc5ebef	-0.034941351014786785
43	0xbfc76387c3ada86a	-0.1827249246082972
44	0xbfdf814e9ab71619	-0.49226727589516056
45	0x3fd1e2e56251bdff	0.27947363473410286
46	0xbfbe1ecf0025c1c4	-0.1176576018676832
47	0xbfc32812365f42e6	-0.14966037421120076
48	0xbff78067a49de25a	-1.468848841699716
49	0xbfeb8fd9ef5bc8cc	-0.8613099741908399
50	0xbfda8dc132f2d91b	-0.41490201926662146
51	0xbfe1a19cdcfc05c6	-0.5509781185248179
52	0xbffbcf8bf3298289	-1.7381705759545716
53	0x3fe516035a370f8c	0.6589371454251576
54	0xbf9e4b9e99bd4914	-0.029585340627201154
55	0xbfde72ca04d7d46f	-0.4757561728759531
56	0x3fa9747e65d8c1ba	0.04971690171476291
57	0x3ff98302de15bf49	1.5944851565545426
58	0x3fed2b9455b69541	0.9115697549902181
59	0x3fe2ca3571e43e92	0.5871836876339833
60	0x3fd190cbb83d6bc2	0.2744626330583594
61	0x3ff69d6a2080161a	1.41343128867573
62	0x3ff4792feadf2d6b	1.2795867132834597
63	0x3f5b1cf7e4e7c629	0.0016548558083936493
64	0x3fd2ed1c335fd456	0.2957220555975416
65	0xbfcc4c17d482a9bd	-0.22107217670902726
66	0xbfd63204ba21b95f	-0.34680288483550287
67	0x3fa20ba4b006b062	0.035245081412853776
68	0xbfe4cf6fd226926f	-0.6503218750481902
69	0xbfd7ca4a1e08f8ef	-0.37172177250967214
70	0xbfcf805f76d71feb	-0.24610513022184874
71	0x3ffd53afa6d7d14b	1.8329311864191193
72	0x3fcd3e0e21b1d059	0.22845627446406772
73	0x3fce279a159f8e48	0.23558355384658314
74	0xbfe963745af4c3e4	-0.7933904434668162
75	0x3ff1fba7b0182df1	1.1239392164887898
76	0xbfcbce01f2b9ffba	-0.21722435333140117
77	0xbff0311405c8ab94	-1.0119819856579158
78	0x3ff0062678dbbd52	1.0015015336064903
79	0xbfb1d4ef80791f4d	-0.06965538870383377
80	0x3fee0b973d1acb32	0.9389148896646928
81	0xbfe36418e7df12aa	-0.6059689072358954
82	0xbfcdcb3e56f43a70	-0.2327649998264465
83	0x400d1d3147f1b873	3.639254152359223
84	0xc00fbfcafc4fddbf	-3.9686488830445508
85	0xbfd8f0fb114885fc	-0.38970829665967677
86	0x4020820fa148a452	8.2540254975485
87	0xc02299f3ee88965d	-9.300689176724683
88	0x3fd87be08d48cda9	0.38256086156180885
89	0x402fb845fffaff30	15.859909057034741
90	0x3fb4e33777e9751e	0.08159205129182509
91	0xbf9b43cc672e06f4	-0.02662581805953486
92	0xbfb704046c847fdc	-0.08990504884104616
93	0x3f959e1776a2634a	0.021110884300102918
94	0xbfbccc8c365100f2	-0.11249615026554574
95	0x3fbc494e0e9476d9	0.11049354415851144
96	0x3fa1c96325f40520	0.034739588149032
97	0xbfb8124814301b1b	-0.09402895443791374
98	0xbfc3d297101dd231	-0.15486419951379696
99	0xbfad34a8c7591cb6	-0.05704238351295869
100	0x3fb2bed8b7f12f85	0.07322458735251132
101	0x3fd95577fa41e3e4	0.3958415931625139
102	0xbfea29a18911b8ff	-0.8175819089063053
103	0xbfe3cf39f37d9a43	-0.6190461879421679
104	0x3ff5ba1b59741f0c	1.3579362386971665
105	0xbff40b0ffd0a8fd1	-1.2527007946418858
106	0xbfd027e92d8a2a52	-0.252435965034839
107	0x3fe93645880c6ec4	0.787874952049116
108	0xbfe05764840c8084	-0.5106680468634441
109	0x3fe349b2eca92a79	0.6027464506417594
110	0xbfc1586d9d770e59	-0.13551111401294483
111	0xbfb9a798140d08b1	-0.10021353234791054
112	0xbf7b5079471facd1	-0.006668542615425114
113	0x3fb7dc3d58378c94	0.09320434001669958
114	0xbfcad059e72a1c43	-0.20948337352112575
115	0x3fd145adc7474fc7	0.2698778577880571
116	0x3fd114548d93a70c	0.2668658621392843
117	0x3fd6366486729f78	0.3470698655096309
118	0xbfd4c960363aee5f	-0.324791005095653
119	0x3fc280b98586ffbd	0.14455336589707982
120	0xbfdac0512007bc00	-0.4179880917353671
121	0xbfb38ebfd058deb1	-0.07639693104362767
122	0x3fd6c0c6855f949a	0.3555160810922843
123	0x3fb48b29eb8633db	0.08024847030738107
124	0xbfd79d9e2e6b757a	-0.36899523289851965
125	0xbfc12000fdcc3405	-0.13378918068374915
126	0xbfa5b13f92def998	-0.04236792247637594
127	0x3fd26c7c0631e21c	0.2878713665482182
128	0xbf9bc1387c905fdc	-0.027104265787869383
129	0x3fc6167c2cca48c8	0.17256118952770394
130	0x3fa21bb0c7a1218b	0.035367512101006936
131	0x3fc72cc5b44bb960	0.1810538416243146
132	0xbfd047bcbdfb6e88	-0.2543784957212911
133	0x3fbaa6a75418d55e	0.10410543254041246
134	0x3fa6db87e1cebe8c	0.04464363700332993
135	0xbfc8453cf9c8ecec	-0.1896129817631399
136	0xbfb7fa579bb5bd28	-0.09366366912376078
137	0x3fb5222eb7ca14f7	0.08255283343358487
138	0xbfc5d6b9dfa52b92	-0.1706154195802268
139	0x3fa537abe611f62f	0.04144036468003908
140	0xbf73deb9e8e1889b	-0.004851080140811838
141	0x3f78a8772f2a9065	0.006020036281061268
142	0xbfcba39bc3906c79	-0.21593043374091161
143	0x3fa2897ef9e90a19	0.036205261236791304
144	0xbfc892ebccfe14d0	-0.19198367604636823
145	0xbfc1174440bd9d1f	-0.13352254067579225
146	0x3fd079e4c1c753d2	0.257439793812691
147	0x3fb6bd7154dcd691	0.08882816621629731
148	0xbfba7ff806e1bbf1	-0.10351514976512967
149	0xbfb933242061469f	-0.0984366015484519
150	0xbfa8f607dfbbc691	-0.04875206571695146
151	0x3f5a47aa3c9d0507	0.0016040003269640073
152	0xbfc113c7f81d9621	-0.13341617217081228
153	0xbf90f49837bdee4c	-0.01655805435392059
154	0x3fc75bdaf1a871ff	0.18249069976526752
155	0xbfc3581ef854d41f	-0.1511267387919881
156	0xbfcd6952688534b0	-0.229776669535942
157	0xbfaf0ece93484706	-0.060659842947769646
158	0x3fd7789e34061515	0.3667369373363994
159	0x3f8f4de6d3edfbe6	0.015285304396227727
160	0xbfd6bb98f4a9c265	-0.3552000417030626
161	0x3fcb7ceb69b49144	0.21474974309342987
162	0x4035621b2d1ccec4	21.383227176221013
